…
I1230 10:32:55.495990 31838 net.cpp:294] The NetState phase (0) differed from the phase (1) specified by a rule in layer accuracy
I1230 10:32:55.496062 31838 net.cpp:51] Initializing net from parameters: 
name: "CIFAR10_quick"
state {
  phase: TRAIN
  level: 0
  stage: ""
}
layer {
  name: "cifar"
  type: "Data"
  top: "data"
  top: "label"
  include {
    phase: TRAIN
  }
  transform_param {
    mean_file: "examples/cifar10/mean.binaryproto"
  }
  data_param {
    source: "examples/cifar10/cifar10_train_lmdb"
    batch_size: 100
    backend: LMDB
  }
}
layer {
  name: "conv1"
  type: "Convolution"
  bottom: "data"
  top: "conv1"
  param {
    lr_mult: 1
  }
  param {
    lr_mult: 2
  }
  convolution_param {
    num_output: 32
    pad: 2
    kernel_size: 5
    stride: 1
    weight_filler {
      type: "gaussian"
      std: 0.0001
    }
    bias_filler {
      type: "constant"
    }
  }
}
layer {
  name: "pool1"
  type: "Pooling"
  bottom: "conv1"
  top: "pool1"
  pooling_param {
    pool: MAX
    kernel_size: 3
    stride: 2
  }
}
layer {
  name: "relu1"
  type: "ReLU"
  bottom: "pool1"
  top: "pool1"
}
layer {
  name: "conv2"
  type: "Convolution"
  bottom: "pool1"
  top: "conv2"
  param {
    lr_mult: 1
  }
  param {
    lr_mult: 2
  }
  convolution_param {
    num_output: 32
    pad: 2
    kernel_size: 5
    stride: 1
    weight_filler {
      type: "gaussian"
      std: 0.01
    }
    bias_filler {
      type: "constant"
    }
  }
}
layer {
  name: "relu2"
  type: "ReLU"
  bottom: "conv2"
  top: "conv2"
}
layer {
  name: "pool2"
  type: "Pooling"
  bottom: "conv2"
  top: "pool2"
  pooling_param {
    pool: AVE
    kernel_size: 3
    stride: 2
  }
}
layer {
  name: "conv3"
  type: "Convolution"
  bottom: "pool2"
  top: "conv3"
  param {
    lr_mult: 1
  }
  param {
    lr_mult: 2
  }
  convolution_param {
    num_output: 64
    pad: 2
    kernel_size: 5
    stride: 1
    weight_filler {
      type: "gaussian"
      std: 0.01
    }
    bias_filler {
      type: "constant"
    }
  }
}
layer {
  name: "relu3"
  type: "ReLU"
  bottom: "conv3"
  top: "conv3"
}
layer {
  name: "pool3"
  type: "Pooling"
  bottom: "conv3"
  top: "pool3"
  pooling_param {
    pool: AVE
    kernel_size: 3
    stride: 2
  }
}
layer {
  name: "ipd1"
  type: "InnerProductDropout"
  bottom: "pool3"
  top: "ipd1"
  param {
    lr_mult: 1
  }
  param {
    lr_mult: 2
  }
  inner_product_dropout_param {
    num_output: 64
    weight_filler {
      type: "gaussian"
      std: 0.1
    }
    bias_filler {
      type: "constant"
    }
    seq_addr: "/home/l301/caffe_pr/seq.txt"
  }
}
layer {
  name: "ip2"
  type: "InnerProduct"
  bottom: "ipd1"
  top: "ip2"
  param {
    lr_mult: 1
  }
  param {
    lr_mult: 2
  }
  inner_product_param {
    num_output: 10
    weight_filler {
      type: "gaussian"
      std: 0.1
    }
    bias_filler {
      type: "constant"
    }
  }
}
layer {
  name: "loss"
  type: "SoftmaxWithLoss"
  bottom: "ip2"
  bottom: "label"
  top: "loss"
}
I1230 10:32:55.496105 31838 layer_factory.hpp:77] Creating layer cifar
I1230 10:32:55.496177 31838 db_lmdb.cpp:35] Opened lmdb examples/cifar10/cifar10_train_lmdb
I1230 10:32:55.496194 31838 net.cpp:84] Creating Layer cifar
I1230 10:32:55.496198 31838 net.cpp:380] cifar -> data
I1230 10:32:55.496217 31838 net.cpp:380] cifar -> label
I1230 10:32:55.496228 31838 data_transformer.cpp:25] Loading mean file from: examples/cifar10/mean.binaryproto
I1230 10:32:55.516564 31838 data_layer.cpp:45] output data size: 100,3,32,32
I1230 10:32:55.521512 31838 net.cpp:122] Setting up cifar
I1230 10:32:55.521534 31838 net.cpp:129] Top shape: 100 3 32 32 (307200)
I1230 10:32:55.521538 31838 net.cpp:129] Top shape: 100 (100)
I1230 10:32:55.521540 31838 net.cpp:137] Memory required for data: 1229200
I1230 10:32:55.521545 31838 layer_factory.hpp:77] Creating layer conv1
I1230 10:32:55.521562 31838 net.cpp:84] Creating Layer conv1
I1230 10:32:55.521566 31838 net.cpp:406] conv1 <- data
I1230 10:32:55.521576 31838 net.cpp:380] conv1 -> conv1
I1230 10:32:55.669294 31838 net.cpp:122] Setting up conv1
I1230 10:32:55.669315 31838 net.cpp:129] Top shape: 100 32 32 32 (3276800)
I1230 10:32:55.669322 31838 net.cpp:137] Memory required for data: 14336400
I1230 10:32:55.669334 31838 layer_factory.hpp:77] Creating layer pool1
I1230 10:32:55.669344 31838 net.cpp:84] Creating Layer pool1
I1230 10:32:55.669348 31838 net.cpp:406] pool1 <- conv1
I1230 10:32:55.669351 31838 net.cpp:380] pool1 -> pool1
I1230 10:32:55.669389 31838 net.cpp:122] Setting up pool1
I1230 10:32:55.669394 31838 net.cpp:129] Top shape: 100 32 16 16 (819200)
I1230 10:32:55.669395 31838 net.cpp:137] Memory required for data: 17613200
I1230 10:32:55.669397 31838 layer_factory.hpp:77] Creating layer relu1
I1230 10:32:55.669401 31838 net.cpp:84] Creating Layer relu1
I1230 10:32:55.669404 31838 net.cpp:406] relu1 <- pool1
I1230 10:32:55.669407 31838 net.cpp:367] relu1 -> pool1 (in-place)
I1230 10:32:55.669523 31838 net.cpp:122] Setting up relu1
I1230 10:32:55.669528 31838 net.cpp:129] Top shape: 100 32 16 16 (819200)
I1230 10:32:55.669531 31838 net.cpp:137] Memory required for data: 20890000
I1230 10:32:55.669533 31838 layer_factory.hpp:77] Creating layer conv2
I1230 10:32:55.669541 31838 net.cpp:84] Creating Layer conv2
I1230 10:32:55.669543 31838 net.cpp:406] conv2 <- pool1
I1230 10:32:55.669548 31838 net.cpp:380] conv2 -> conv2
I1230 10:32:55.671452 31838 net.cpp:122] Setting up conv2
I1230 10:32:55.671461 31838 net.cpp:129] Top shape: 100 32 16 16 (819200)
I1230 10:32:55.671464 31838 net.cpp:137] Memory required for data: 24166800
I1230 10:32:55.671469 31838 layer_factory.hpp:77] Creating layer relu2
I1230 10:32:55.671473 31838 net.cpp:84] Creating Layer relu2
I1230 10:32:55.671476 31838 net.cpp:406] relu2 <- conv2
I1230 10:32:55.671479 31838 net.cpp:367] relu2 -> conv2 (in-place)
I1230 10:32:55.671586 31838 net.cpp:122] Setting up relu2
I1230 10:32:55.671591 31838 net.cpp:129] Top shape: 100 32 16 16 (819200)
I1230 10:32:55.671594 31838 net.cpp:137] Memory required for data: 27443600
I1230 10:32:55.671596 31838 layer_factory.hpp:77] Creating layer pool2
I1230 10:32:55.671599 31838 net.cpp:84] Creating Layer pool2
I1230 10:32:55.671602 31838 net.cpp:406] pool2 <- conv2
I1230 10:32:55.671605 31838 net.cpp:380] pool2 -> pool2
I1230 10:32:55.671715 31838 net.cpp:122] Setting up pool2
I1230 10:32:55.671720 31838 net.cpp:129] Top shape: 100 32 8 8 (204800)
I1230 10:32:55.671722 31838 net.cpp:137] Memory required for data: 28262800
I1230 10:32:55.671725 31838 layer_factory.hpp:77] Creating layer conv3
I1230 10:32:55.671730 31838 net.cpp:84] Creating Layer conv3
I1230 10:32:55.671732 31838 net.cpp:406] conv3 <- pool2
I1230 10:32:55.671737 31838 net.cpp:380] conv3 -> conv3
I1230 10:32:55.673403 31838 net.cpp:122] Setting up conv3
I1230 10:32:55.673411 31838 net.cpp:129] Top shape: 100 64 8 8 (409600)
I1230 10:32:55.673414 31838 net.cpp:137] Memory required for data: 29901200
I1230 10:32:55.673420 31838 layer_factory.hpp:77] Creating layer relu3
I1230 10:32:55.673424 31838 net.cpp:84] Creating Layer relu3
I1230 10:32:55.673427 31838 net.cpp:406] relu3 <- conv3
I1230 10:32:55.673430 31838 net.cpp:367] relu3 -> conv3 (in-place)
I1230 10:32:55.673720 31838 net.cpp:122] Setting up relu3
I1230 10:32:55.673728 31838 net.cpp:129] Top shape: 100 64 8 8 (409600)
I1230 10:32:55.673732 31838 net.cpp:137] Memory required for data: 31539600
I1230 10:32:55.673733 31838 layer_factory.hpp:77] Creating layer pool3
I1230 10:32:55.673738 31838 net.cpp:84] Creating Layer pool3
I1230 10:32:55.673740 31838 net.cpp:406] pool3 <- conv3
I1230 10:32:55.673743 31838 net.cpp:380] pool3 -> pool3
I1230 10:32:55.673857 31838 net.cpp:122] Setting up pool3
I1230 10:32:55.673862 31838 net.cpp:129] Top shape: 100 64 4 4 (102400)
I1230 10:32:55.673866 31838 net.cpp:137] Memory required for data: 31949200
I1230 10:32:55.673867 31838 layer_factory.hpp:77] Creating layer ipd1
I1230 10:32:55.673872 31838 net.cpp:84] Creating Layer ipd1
I1230 10:32:55.673874 31838 net.cpp:406] ipd1 <- pool3
I1230 10:32:55.673877 31838 net.cpp:380] ipd1 -> ipd1
I1230 10:32:55.675288 31838 net.cpp:122] Setting up ipd1
I1230 10:32:55.675295 31838 net.cpp:129] Top shape: 100 64 (6400)
I1230 10:32:55.675298 31838 net.cpp:137] Memory required for data: 31974800
I1230 10:32:55.675302 31838 layer_factory.hpp:77] Creating layer ip2
I1230 10:32:55.675307 31838 net.cpp:84] Creating Layer ip2
I1230 10:32:55.675308 31838 net.cpp:406] ip2 <- ipd1
I1230 10:32:55.675312 31838 net.cpp:380] ip2 -> ip2
I1230 10:32:55.675390 31838 net.cpp:122] Setting up ip2
I1230 10:32:55.675395 31838 net.cpp:129] Top shape: 100 10 (1000)
I1230 10:32:55.675397 31838 net.cpp:137] Memory required for data: 31978800
I1230 10:32:55.675401 31838 layer_factory.hpp:77] Creating layer loss
I1230 10:32:55.675405 31838 net.cpp:84] Creating Layer loss
I1230 10:32:55.675407 31838 net.cpp:406] loss <- ip2
I1230 10:32:55.675410 31838 net.cpp:406] loss <- label
I1230 10:32:55.675413 31838 net.cpp:380] loss -> loss
I1230 10:32:55.675420 31838 layer_factory.hpp:77] Creating layer loss
…
