…
I1230 10:33:01.258257 31849 net.cpp:294] The NetState phase (0) differed from the phase (1) specified by a rule in layer accuracy
I1230 10:33:01.258332 31849 net.cpp:51] Initializing net from parameters: 
name: "CIFAR10_quick"
state {
  phase: TRAIN
  level: 0
  stage: ""
}
layer {
  name: "cifar"
  type: "Data"
  top: "data"
  top: "label"
  include {
    phase: TRAIN
  }
  transform_param {
    mean_file: "examples/cifar10/mean.binaryproto"
  }
  data_param {
    source: "examples/cifar10/cifar10_train_lmdb"
    batch_size: 100
    backend: LMDB
  }
}
layer {
  name: "conv1"
  type: "Convolution"
  bottom: "data"
  top: "conv1"
  param {
    lr_mult: 1
  }
  param {
    lr_mult: 2
  }
  convolution_param {
    num_output: 32
    pad: 2
    kernel_size: 5
    stride: 1
    weight_filler {
      type: "gaussian"
      std: 0.0001
    }
    bias_filler {
      type: "constant"
    }
  }
}
layer {
  name: "pool1"
  type: "Pooling"
  bottom: "conv1"
  top: "pool1"
  pooling_param {
    pool: MAX
    kernel_size: 3
    stride: 2
  }
}
layer {
  name: "relu1"
  type: "ReLU"
  bottom: "pool1"
  top: "pool1"
}
layer {
  name: "conv2"
  type: "Convolution"
  bottom: "pool1"
  top: "conv2"
  param {
    lr_mult: 1
  }
  param {
    lr_mult: 2
  }
  convolution_param {
    num_output: 32
    pad: 2
    kernel_size: 5
    stride: 1
    weight_filler {
      type: "gaussian"
      std: 0.01
    }
    bias_filler {
      type: "constant"
    }
  }
}
layer {
  name: "relu2"
  type: "ReLU"
  bottom: "conv2"
  top: "conv2"
}
layer {
  name: "pool2"
  type: "Pooling"
  bottom: "conv2"
  top: "pool2"
  pooling_param {
    pool: AVE
    kernel_size: 3
    stride: 2
  }
}
layer {
  name: "conv3"
  type: "Convolution"
  bottom: "pool2"
  top: "conv3"
  param {
    lr_mult: 1
  }
  param {
    lr_mult: 2
  }
  convolution_param {
    num_output: 64
    pad: 2
    kernel_size: 5
    stride: 1
    weight_filler {
      type: "gaussian"
      std: 0.01
    }
    bias_filler {
      type: "constant"
    }
  }
}
layer {
  name: "relu3"
  type: "ReLU"
  bottom: "conv3"
  top: "conv3"
}
layer {
  name: "pool3"
  type: "Pooling"
  bottom: "conv3"
  top: "pool3"
  pooling_param {
    pool: AVE
    kernel_size: 3
    stride: 2
  }
}
layer {
  name: "drop1"
  type: "Dropout"
  bottom: "pool3"
  top: "pool3"
  dropout_param {
    dropout_ratio: 0.5
  }
}
layer {
  name: "ip1"
  type: "InnerProduct"
  bottom: "pool3"
  top: "ip1"
  param {
    lr_mult: 1
  }
  param {
    lr_mult: 2
  }
  inner_product_param {
    num_output: 64
    weight_filler {
      type: "gaussian"
      std: 0.1
    }
    bias_filler {
      type: "constant"
    }
  }
}
layer {
  name: "ip2"
  type: "InnerProduct"
  bottom: "ip1"
  top: "ip2"
  param {
    lr_mult: 1
  }
  param {
    lr_mult: 2
  }
  inner_product_param {
    num_output: 10
    weight_filler {
      type: "gaussian"
      std: 0.1
    }
    bias_filler {
      type: "constant"
    }
  }
}
layer {
  name: "loss"
  type: "SoftmaxWithLoss"
  bottom: "ip2"
  bottom: "label"
  top: "loss"
}
I1230 10:33:01.258374 31849 layer_factory.hpp:77] Creating layer cifar
I1230 10:33:01.258440 31849 db_lmdb.cpp:35] Opened lmdb examples/cifar10/cifar10_train_lmdb
I1230 10:33:01.258457 31849 net.cpp:84] Creating Layer cifar
I1230 10:33:01.258462 31849 net.cpp:380] cifar -> data
I1230 10:33:01.258482 31849 net.cpp:380] cifar -> label
I1230 10:33:01.258491 31849 data_transformer.cpp:25] Loading mean file from: examples/cifar10/mean.binaryproto
I1230 10:33:01.280613 31849 data_layer.cpp:45] output data size: 100,3,32,32
I1230 10:33:01.285437 31849 net.cpp:122] Setting up cifar
I1230 10:33:01.285472 31849 net.cpp:129] Top shape: 100 3 32 32 (307200)
I1230 10:33:01.285477 31849 net.cpp:129] Top shape: 100 (100)
I1230 10:33:01.285480 31849 net.cpp:137] Memory required for data: 1229200
I1230 10:33:01.285487 31849 layer_factory.hpp:77] Creating layer conv1
I1230 10:33:01.285506 31849 net.cpp:84] Creating Layer conv1
I1230 10:33:01.285519 31849 net.cpp:406] conv1 <- data
I1230 10:33:01.285529 31849 net.cpp:380] conv1 -> conv1
I1230 10:33:01.433277 31849 net.cpp:122] Setting up conv1
I1230 10:33:01.433296 31849 net.cpp:129] Top shape: 100 32 32 32 (3276800)
I1230 10:33:01.433300 31849 net.cpp:137] Memory required for data: 14336400
I1230 10:33:01.433313 31849 layer_factory.hpp:77] Creating layer pool1
I1230 10:33:01.433324 31849 net.cpp:84] Creating Layer pool1
I1230 10:33:01.433328 31849 net.cpp:406] pool1 <- conv1
I1230 10:33:01.433332 31849 net.cpp:380] pool1 -> pool1
I1230 10:33:01.433367 31849 net.cpp:122] Setting up pool1
I1230 10:33:01.433373 31849 net.cpp:129] Top shape: 100 32 16 16 (819200)
I1230 10:33:01.433375 31849 net.cpp:137] Memory required for data: 17613200
I1230 10:33:01.433377 31849 layer_factory.hpp:77] Creating layer relu1
I1230 10:33:01.433382 31849 net.cpp:84] Creating Layer relu1
I1230 10:33:01.433384 31849 net.cpp:406] relu1 <- pool1
I1230 10:33:01.433387 31849 net.cpp:367] relu1 -> pool1 (in-place)
I1230 10:33:01.433493 31849 net.cpp:122] Setting up relu1
I1230 10:33:01.433499 31849 net.cpp:129] Top shape: 100 32 16 16 (819200)
I1230 10:33:01.433501 31849 net.cpp:137] Memory required for data: 20890000
I1230 10:33:01.433503 31849 layer_factory.hpp:77] Creating layer conv2
I1230 10:33:01.433511 31849 net.cpp:84] Creating Layer conv2
I1230 10:33:01.433513 31849 net.cpp:406] conv2 <- pool1
I1230 10:33:01.433517 31849 net.cpp:380] conv2 -> conv2
I1230 10:33:01.435380 31849 net.cpp:122] Setting up conv2
I1230 10:33:01.435390 31849 net.cpp:129] Top shape: 100 32 16 16 (819200)
I1230 10:33:01.435394 31849 net.cpp:137] Memory required for data: 24166800
I1230 10:33:01.435400 31849 layer_factory.hpp:77] Creating layer relu2
I1230 10:33:01.435403 31849 net.cpp:84] Creating Layer relu2
I1230 10:33:01.435405 31849 net.cpp:406] relu2 <- conv2
I1230 10:33:01.435410 31849 net.cpp:367] relu2 -> conv2 (in-place)
I1230 10:33:01.435508 31849 net.cpp:122] Setting up relu2
I1230 10:33:01.435514 31849 net.cpp:129] Top shape: 100 32 16 16 (819200)
I1230 10:33:01.435516 31849 net.cpp:137] Memory required for data: 27443600
I1230 10:33:01.435518 31849 layer_factory.hpp:77] Creating layer pool2
I1230 10:33:01.435523 31849 net.cpp:84] Creating Layer pool2
I1230 10:33:01.435524 31849 net.cpp:406] pool2 <- conv2
I1230 10:33:01.435528 31849 net.cpp:380] pool2 -> pool2
I1230 10:33:01.435628 31849 net.cpp:122] Setting up pool2
I1230 10:33:01.435634 31849 net.cpp:129] Top shape: 100 32 8 8 (204800)
I1230 10:33:01.435636 31849 net.cpp:137] Memory required for data: 28262800
I1230 10:33:01.435638 31849 layer_factory.hpp:77] Creating layer conv3
I1230 10:33:01.435644 31849 net.cpp:84] Creating Layer conv3
I1230 10:33:01.435647 31849 net.cpp:406] conv3 <- pool2
I1230 10:33:01.435649 31849 net.cpp:380] conv3 -> conv3
I1230 10:33:01.437259 31849 net.cpp:122] Setting up conv3
I1230 10:33:01.437268 31849 net.cpp:129] Top shape: 100 64 8 8 (409600)
I1230 10:33:01.437271 31849 net.cpp:137] Memory required for data: 29901200
I1230 10:33:01.437276 31849 layer_factory.hpp:77] Creating layer relu3
I1230 10:33:01.437281 31849 net.cpp:84] Creating Layer relu3
I1230 10:33:01.437283 31849 net.cpp:406] relu3 <- conv3
I1230 10:33:01.437286 31849 net.cpp:367] relu3 -> conv3 (in-place)
I1230 10:33:01.437556 31849 net.cpp:122] Setting up relu3
I1230 10:33:01.437564 31849 net.cpp:129] Top shape: 100 64 8 8 (409600)
I1230 10:33:01.437567 31849 net.cpp:137] Memory required for data: 31539600
I1230 10:33:01.437569 31849 layer_factory.hpp:77] Creating layer pool3
I1230 10:33:01.437573 31849 net.cpp:84] Creating Layer pool3
I1230 10:33:01.437575 31849 net.cpp:406] pool3 <- conv3
I1230 10:33:01.437578 31849 net.cpp:380] pool3 -> pool3
I1230 10:33:01.437683 31849 net.cpp:122] Setting up pool3
I1230 10:33:01.437688 31849 net.cpp:129] Top shape: 100 64 4 4 (102400)
I1230 10:33:01.437691 31849 net.cpp:137] Memory required for data: 31949200
I1230 10:33:01.437693 31849 layer_factory.hpp:77] Creating layer drop1
I1230 10:33:01.437700 31849 net.cpp:84] Creating Layer drop1
I1230 10:33:01.437702 31849 net.cpp:406] drop1 <- pool3
I1230 10:33:01.437714 31849 net.cpp:367] drop1 -> pool3 (in-place)
I1230 10:33:01.437731 31849 net.cpp:122] Setting up drop1
I1230 10:33:01.437734 31849 net.cpp:129] Top shape: 100 64 4 4 (102400)
I1230 10:33:01.437736 31849 net.cpp:137] Memory required for data: 32358800
I1230 10:33:01.437738 31849 layer_factory.hpp:77] Creating layer ip1
I1230 10:33:01.437742 31849 net.cpp:84] Creating Layer ip1
I1230 10:33:01.437746 31849 net.cpp:406] ip1 <- pool3
I1230 10:33:01.437748 31849 net.cpp:380] ip1 -> ip1
I1230 10:33:01.439118 31849 net.cpp:122] Setting up ip1
I1230 10:33:01.439126 31849 net.cpp:129] Top shape: 100 64 (6400)
I1230 10:33:01.439128 31849 net.cpp:137] Memory required for data: 32384400
I1230 10:33:01.439132 31849 layer_factory.hpp:77] Creating layer ip2
I1230 10:33:01.439136 31849 net.cpp:84] Creating Layer ip2
I1230 10:33:01.439138 31849 net.cpp:406] ip2 <- ip1
I1230 10:33:01.439142 31849 net.cpp:380] ip2 -> ip2
I1230 10:33:01.439211 31849 net.cpp:122] Setting up ip2
I1230 10:33:01.439216 31849 net.cpp:129] Top shape: 100 10 (1000)
I1230 10:33:01.439218 31849 net.cpp:137] Memory required for data: 32388400
I1230 10:33:01.439224 31849 layer_factory.hpp:77] Creating layer loss
I1230 10:33:01.439226 31849 net.cpp:84] Creating Layer loss
I1230 10:33:01.439229 31849 net.cpp:406] loss <- ip2
I1230 10:33:01.439231 31849 net.cpp:406] loss <- label
I1230 10:33:01.439235 31849 net.cpp:380] loss -> loss
I1230 10:33:01.439241 31849 layer_factory.hpp:77] Creating layer loss
…
